…
          "base_uri": "https://localhost:8080/"
        },
        "id": "kQp1mO_kN1nn",
        "outputId": "9fb86413-7732-4df0-c798-45a679dfdb85"
      },
      "execution_count": 26,
      "outputs": [
        {
          "output_type": "stream",
          "name": "stdout",
          "text": [
            "Model: \"sequential\"\n",
            "_________________________________________________________________\n",
            " Layer (type)                Output Shape              Param #   \n",
            "=================================================================\n",
            " conv2d (Conv2D)             (None, 26, 26, 32)        320       \n",
            "                                                                 \n",
            " batch_normalization (Batch  (None, 26, 26, 32)        128       \n",
            " Normalization)                                                  \n",
            "                                                                 \n",
            " conv2d_1 (Conv2D)           (None, 24, 24, 32)        9248      \n",
            "                                                                 \n",
            " batch_normalization_1 (Bat  (None, 24, 24, 32)        128       \n",
            " chNormalization)                                                \n",
            "                                                                 \n",
            " max_pooling2d (MaxPooling2  (None, 12, 12, 32)        0         \n",
            " D)                                                              \n",
            "                                                                 \n",
            " conv2d_2 (Conv2D)           (None, 10, 10, 64)        18496     \n",
            "                                                                 \n",
            " batch_normalization_2 (Bat  (None, 10, 10, 64)        256       \n",
            " chNormalization)                                                \n",
            "                                                                 \n",
            " conv2d_3 (Conv2D)           (None, 8, 8, 64)          36928     \n",
            "                                                                 \n",
            " batch_normalization_3 (Bat  (None, 8, 8, 64)          256       \n",
            " chNormalization)                                                \n",
            "                                                                 \n",
            " max_pooling2d_1 (MaxPoolin  (None, 4, 4, 64)          0         \n",
            " g2D)                                                            \n",
            "                                                                 \n",
            " flatten (Flatten)           (None, 1024)              0         \n",
            "                                                                 \n",
            " dropout (Dropout)           (None, 1024)              0         \n",
            "                                                                 \n",
            " dense (Dense)               (None, 77)                78925     \n",
            "                                                                 \n",
            "=================================================================\n",
            "Total params: 144685 (565.18 KB)\n",
            "Trainable params: 144301 (563.68 KB)\n",
            "Non-trainable params: 384 (1.50 KB)\n",
            "_________________________________________________________________\n"
…
